…
I0131 12:54:43.880945   164 net.cpp:323] The NetState phase (0) differed from the phase (1) specified by a rule in layer val-data
I0131 12:54:43.880964   164 net.cpp:323] The NetState phase (0) differed from the phase (1) specified by a rule in layer accuracy
I0131 12:54:43.881098   164 net.cpp:52] Initializing net from parameters:
state {
phase: TRAIN
}
layer {
name: "train-data"
type: "Data"
top: "data"
top: "label"
include {
phase: TRAIN
}
transform_param {
mirror: true
crop_size: 227
mean_file: "/opt/DIGITS/digits/jobs/20190131-125322-5b5a/mean.binaryproto"
}
data_param {
source: "/opt/DIGITS/digits/jobs/20190131-125322-5b5a/train_db"
batch_size: 128
backend: LMDB
}
}
layer {
name: "conv1"
type: "Convolution"
bottom: "data"
top: "conv1"
param {
lr_mult: 1
decay_mult: 1
}
param {
lr_mult: 2
decay_mult: 0
}
convolution_param {
num_output: 96
kernel_size: 11
stride: 4
weight_filler {
type: "gaussian"
std: 0.01
}
bias_filler {
type: "constant"
value: 0
}
}
}
layer {
name: "relu1"
type: "ReLU"
bottom: "conv1"
top: "conv1"
}
layer {
name: "norm1"
type: "LRN"
bottom: "conv1"
top: "norm1"
lrn_param {
local_size: 5
alpha: 0.0001
beta: 0.75
}
}
layer {
name: "pool1"
type: "Pooling"
bottom: "norm1"
top: "pool1"
pooling_param {
pool: MAX
kernel_size: 3
stride: 2
}
}
layer {
name: "conv2"
type: "Convolution"
bottom: "pool1"
top: "conv2"
param {
lr_mult: 1
decay_mult: 1
}
param {
lr_mult: 2
decay_mult: 0
}
convolution_param {
num_output: 256
pad: 2
kernel_size: 5
group: 2
weight_filler {
type: "gaussian"
std: 0.01
}
bias_filler {
type: "constant"
value: 0.1
}
}
}
layer {
name: "relu2"
type: "ReLU"
bottom: "conv2"
top: "conv2"
}
layer {
name: "norm2"
type: "LRN"
bottom: "conv2"
top: "norm2"
lrn_param {
local_size: 5
alpha: 0.0001
beta: 0.75
}
}
layer {
name: "pool2"
type: "Pooling"
bottom: "norm2"
top: "pool2"
pooling_param {
pool: MAX
kernel_size: 3
stride: 2
}
}
layer {
name: "conv3"
type: "Convolution"
bottom: "pool2"
top: "conv3"
param {
lr_mult: 1
decay_mult: 1
}
param {
lr_mult: 2
decay_mult: 0
}
convolution_param {
num_output: 384
pad: 1
kernel_size: 3
weight_filler {
type: "gaussian"
std: 0.01
}
bias_filler {
type: "constant"
value: 0
}
}
}
layer {
name: "relu3"
type: "ReLU"
bottom: "conv3"
top: "conv3"
}
layer {
name: "conv4"
type: "Convolution"
bottom: "conv3"
top: "conv4"
param {
lr_mult: 1
decay_mult: 1
}
param {
lr_mult: 2
decay_mult: 0
}
convolution_param {
num_output: 384
pad: 1
kernel_size: 3
group: 2
weight_filler {
type: "gaussian"
std: 0.01
}
bias_filler {
type: "constant"
value: 0.1
}
}
}
layer {
name: "relu4"
type: "ReLU"
bottom: "conv4"
top: "conv4"
}
layer {
name: "conv5"
type: "Convolution"
bottom: "conv4"
top: "conv5"
param {
lr_mult: 1
decay_mult: 1
}
param {
lr_mult: 2
decay_mult: 0
}
convolution_param {
num_output: 256
pad: 1
kernel_size: 3
group: 2
weight_filler {
type: "gaussian"
std: 0.01
}
bias_filler {
type: "constant"
value: 0.1
}
}
}
layer {
name: "relu5"
type: "ReLU"
bottom: "conv5"
top: "conv5"
}
layer {
name: "pool5"
type: "Pooling"
bottom: "conv5"
top: "pool5"
pooling_param {
pool: MAX
kernel_size: 3
stride: 2
}
}
layer {
name: "fc6"
type: "InnerProduct"
bottom: "pool5"
top: "fc6"
param {
lr_mult: 1
decay_mult: 1
}
param {
lr_mult: 2
decay_mult: 0
}
inner_product_param {
num_output: 4096
weight_filler {
type: "gaussian"
std: 0.005
}
bias_filler {
type: "constant"
value: 0.1
}
}
}
layer {
name: "relu6"
type: "ReLU"
bottom: "fc6"
top: "fc6"
}
layer {
name: "drop6"
type: "Dropout"
bottom: "fc6"
top: "fc6"
dropout_param {
dropout_ratio: 0.5
}
}
layer {
name: "fc7"
type: "InnerProduct"
bottom: "fc6"
top: "fc7"
param {
lr_mult: 1
decay_mult: 1
}
param {
lr_mult: 2
decay_mult: 0
}
inner_product_param {
num_output: 4096
weight_filler {
type: "gaussian"
std: 0.005
}
bias_filler {
type: "constant"
value: 0.1
}
}
}
layer {
name: "relu7"
type: "ReLU"
bottom: "fc7"
top: "fc7"
}
layer {
name: "drop7"
type: "Dropout"
bottom: "fc7"
top: "fc7"
dropout_param {
dropout_ratio: 0.5
}
}
layer {
name: "fc8"
type: "InnerProduct"
bottom: "fc7"
top: "fc8"
param {
lr_mult: 1
decay_mult: 1
}
param {
lr_mult: 2
decay_mult: 0
}
inner_product_param {
num_output: 10
weight_filler {
type: "gaussian"
std: 0.01
}
bias_filler {
type: "constant"
value: 0
}
}
}
layer {
name: "loss"
type: "SoftmaxWithLoss"
bottom: "fc8"
bottom: "label"
top: "loss"
}
I0131 12:54:43.881204   164 layer_factory.hpp:77] Creating layer train-data
I0131 12:54:43.883877   164 net.cpp:94] Creating Layer train-data
I0131 12:54:43.883904   164 net.cpp:409] train-data -> data
I0131 12:54:43.884513   167 db_lmdb.cpp:35] Opened lmdb /opt/DIGITS/digits/jobs/20190131-125322-5b5a/train_db
I0131 12:54:43.884883   164 net.cpp:409] train-data -> label
I0131 12:54:43.884917   164 data_transformer.cpp:25] Loading mean file from: /opt/DIGITS/digits/jobs/20190131-125322-5b5a/mean.binaryproto
I0131 12:54:43.893957   164 data_layer.cpp:78] ReshapePrefetch 128, 1, 227, 227
I0131 12:54:43.894013   164 data_layer.cpp:83] output data size: 128,1,227,227
I0131 12:54:43.951990   164 net.cpp:144] Setting up train-data
I0131 12:54:43.952039   164 net.cpp:151] Top shape: 128 1 227 227 (6595712)
I0131 12:54:43.952045   164 net.cpp:151] Top shape: 128 (128)
I0131 12:54:43.952049   164 net.cpp:159] Memory required for data: 26383360
I0131 12:54:43.952064   164 layer_factory.hpp:77] Creating layer conv1
I0131 12:54:43.952106   164 net.cpp:94] Creating Layer conv1
I0131 12:54:43.952116   164 net.cpp:435] conv1 <- data
I0131 12:54:43.952142   164 net.cpp:409] conv1 -> conv1
I0131 12:54:43.964762   164 net.cpp:144] Setting up conv1
I0131 12:54:43.964790   164 net.cpp:151] Top shape: 128 96 55 55 (37171200)
I0131 12:54:43.964797   164 net.cpp:159] Memory required for data: 175068160
I0131 12:54:43.964836   164 layer_factory.hpp:77] Creating layer relu1
I0131 12:54:43.964854   164 net.cpp:94] Creating Layer relu1
I0131 12:54:43.964861   164 net.cpp:435] relu1 <- conv1
I0131 12:54:43.964872   164 net.cpp:396] relu1 -> conv1 (in-place)
I0131 12:54:43.964902   164 net.cpp:144] Setting up relu1
I0131 12:54:43.964911   164 net.cpp:151] Top shape: 128 96 55 55 (37171200)
I0131 12:54:43.964917   164 net.cpp:159] Memory required for data: 323752960
I0131 12:54:43.964922   164 layer_factory.hpp:77] Creating layer norm1
I0131 12:54:43.964936   164 net.cpp:94] Creating Layer norm1
I0131 12:54:43.964942   164 net.cpp:435] norm1 <- conv1
I0131 12:54:43.964988   164 net.cpp:409] norm1 -> norm1
I0131 12:54:43.965067   164 net.cpp:144] Setting up norm1
I0131 12:54:43.965080   164 net.cpp:151] Top shape: 128 96 55 55 (37171200)
I0131 12:54:43.965085   164 net.cpp:159] Memory required for data: 472437760
I0131 12:54:43.965091   164 layer_factory.hpp:77] Creating layer pool1
I0131 12:54:43.965104   164 net.cpp:94] Creating Layer pool1
I0131 12:54:43.965111   164 net.cpp:435] pool1 <- norm1
I0131 12:54:43.965119   164 net.cpp:409] pool1 -> pool1
I0131 12:54:43.965178   164 net.cpp:144] Setting up pool1
I0131 12:54:43.965190   164 net.cpp:151] Top shape: 128 96 27 27 (8957952)
I0131 12:54:43.965195   164 net.cpp:159] Memory required for data: 508269568
I0131 12:54:43.965200   164 layer_factory.hpp:77] Creating layer conv2
I0131 12:54:43.965216   164 net.cpp:94] Creating Layer conv2
I0131 12:54:43.965222   164 net.cpp:435] conv2 <- pool1
I0131 12:54:43.965232   164 net.cpp:409] conv2 -> conv2
I0131 12:54:43.983041   164 net.cpp:144] Setting up conv2
I0131 12:54:43.983063   164 net.cpp:151] Top shape: 128 256 27 27 (23887872)
I0131 12:54:43.983070   164 net.cpp:159] Memory required for data: 603821056
I0131 12:54:43.983084   164 layer_factory.hpp:77] Creating layer relu2
I0131 12:54:43.983096   164 net.cpp:94] Creating Layer relu2
I0131 12:54:43.983103   164 net.cpp:435] relu2 <- conv2
I0131 12:54:43.983112   164 net.cpp:396] relu2 -> conv2 (in-place)
I0131 12:54:43.983125   164 net.cpp:144] Setting up relu2
I0131 12:54:43.983134   164 net.cpp:151] Top shape: 128 256 27 27 (23887872)
I0131 12:54:43.983139   164 net.cpp:159] Memory required for data: 699372544
I0131 12:54:43.983144   164 layer_factory.hpp:77] Creating layer norm2
I0131 12:54:43.983153   164 net.cpp:94] Creating Layer norm2
I0131 12:54:43.983160   164 net.cpp:435] norm2 <- conv2
I0131 12:54:43.983167   164 net.cpp:409] norm2 -> norm2
I0131 12:54:43.983225   164 net.cpp:144] Setting up norm2
I0131 12:54:43.983235   164 net.cpp:151] Top shape: 128 256 27 27 (23887872)
I0131 12:54:43.983240   164 net.cpp:159] Memory required for data: 794924032
I0131 12:54:43.983245   164 layer_factory.hpp:77] Creating layer pool2
I0131 12:54:43.983258   164 net.cpp:94] Creating Layer pool2
I0131 12:54:43.983263   164 net.cpp:435] pool2 <- norm2
I0131 12:54:43.983271   164 net.cpp:409] pool2 -> pool2
I0131 12:54:43.983331   164 net.cpp:144] Setting up pool2
I0131 12:54:43.983342   164 net.cpp:151] Top shape: 128 256 13 13 (5537792)
I0131 12:54:43.983347   164 net.cpp:159] Memory required for data: 817075200
I0131 12:54:43.983353   164 layer_factory.hpp:77] Creating layer conv3
I0131 12:54:43.983367   164 net.cpp:94] Creating Layer conv3
I0131 12:54:43.983373   164 net.cpp:435] conv3 <- pool2
I0131 12:54:43.983383   164 net.cpp:409] conv3 -> conv3
I0131 12:54:44.000291   164 net.cpp:144] Setting up conv3
I0131 12:54:44.000375   164 net.cpp:151] Top shape: 128 384 13 13 (8306688)
I0131 12:54:44.000383   164 net.cpp:159] Memory required for data: 850301952
I0131 12:54:44.000398   164 layer_factory.hpp:77] Creating layer relu3
I0131 12:54:44.000411   164 net.cpp:94] Creating Layer relu3
I0131 12:54:44.000416   164 net.cpp:435] relu3 <- conv3
I0131 12:54:44.000427   164 net.cpp:396] relu3 -> conv3 (in-place)
I0131 12:54:44.000439   164 net.cpp:144] Setting up relu3
I0131 12:54:44.000447   164 net.cpp:151] Top shape: 128 384 13 13 (8306688)
I0131 12:54:44.000452   164 net.cpp:159] Memory required for data: 883528704
I0131 12:54:44.000458   164 layer_factory.hpp:77] Creating layer conv4
I0131 12:54:44.000471   164 net.cpp:94] Creating Layer conv4
I0131 12:54:44.000476   164 net.cpp:435] conv4 <- conv3
I0131 12:54:44.000486   164 net.cpp:409] conv4 -> conv4
I0131 12:54:44.013430   164 net.cpp:144] Setting up conv4
I0131 12:54:44.013468   164 net.cpp:151] Top shape: 128 384 13 13 (8306688)
I0131 12:54:44.013474   164 net.cpp:159] Memory required for data: 916755456
I0131 12:54:44.013487   164 layer_factory.hpp:77] Creating layer relu4
I0131 12:54:44.013499   164 net.cpp:94] Creating Layer relu4
I0131 12:54:44.013506   164 net.cpp:435] relu4 <- conv4
I0131 12:54:44.013556   164 net.cpp:396] relu4 -> conv4 (in-place)
I0131 12:54:44.013571   164 net.cpp:144] Setting up relu4
I0131 12:54:44.013579   164 net.cpp:151] Top shape: 128 384 13 13 (8306688)
I0131 12:54:44.013584   164 net.cpp:159] Memory required for data: 949982208
I0131 12:54:44.013590   164 layer_factory.hpp:77] Creating layer conv5
I0131 12:54:44.013604   164 net.cpp:94] Creating Layer conv5
I0131 12:54:44.013610   164 net.cpp:435] conv5 <- conv4
I0131 12:54:44.013620   164 net.cpp:409] conv5 -> conv5
I0131 12:54:44.022473   164 net.cpp:144] Setting up conv5
I0131 12:54:44.022498   164 net.cpp:151] Top shape: 128 256 13 13 (5537792)
I0131 12:54:44.022505   164 net.cpp:159] Memory required for data: 972133376
I0131 12:54:44.022523   164 layer_factory.hpp:77] Creating layer relu5
I0131 12:54:44.022534   164 net.cpp:94] Creating Layer relu5
I0131 12:54:44.022541   164 net.cpp:435] relu5 <- conv5
I0131 12:54:44.022552   164 net.cpp:396] relu5 -> conv5 (in-place)
I0131 12:54:44.022565   164 net.cpp:144] Setting up relu5
I0131 12:54:44.022573   164 net.cpp:151] Top shape: 128 256 13 13 (5537792)
I0131 12:54:44.022578   164 net.cpp:159] Memory required for data: 994284544
I0131 12:54:44.022584   164 layer_factory.hpp:77] Creating layer pool5
I0131 12:54:44.022595   164 net.cpp:94] Creating Layer pool5
I0131 12:54:44.022601   164 net.cpp:435] pool5 <- conv5
I0131 12:54:44.022610   164 net.cpp:409] pool5 -> pool5
I0131 12:54:44.022666   164 net.cpp:144] Setting up pool5
I0131 12:54:44.022676   164 net.cpp:151] Top shape: 128 256 6 6 (1179648)
I0131 12:54:44.022681   164 net.cpp:159] Memory required for data: 999003136
I0131 12:54:44.022687   164 layer_factory.hpp:77] Creating layer fc6
I0131 12:54:44.022709   164 net.cpp:94] Creating Layer fc6
I0131 12:54:44.022730   164 net.cpp:435] fc6 <- pool5
I0131 12:54:44.022742   164 net.cpp:409] fc6 -> fc6
I0131 12:54:44.558179   164 net.cpp:144] Setting up fc6
I0131 12:54:44.558224   164 net.cpp:151] Top shape: 128 4096 (524288)
I0131 12:54:44.558229   164 net.cpp:159] Memory required for data: 1001100288
I0131 12:54:44.558243   164 layer_factory.hpp:77] Creating layer relu6
I0131 12:54:44.558256   164 net.cpp:94] Creating Layer relu6
I0131 12:54:44.558261   164 net.cpp:435] relu6 <- fc6
I0131 12:54:44.558270   164 net.cpp:396] relu6 -> fc6 (in-place)
I0131 12:54:44.558287   164 net.cpp:144] Setting up relu6
I0131 12:54:44.558292   164 net.cpp:151] Top shape: 128 4096 (524288)
I0131 12:54:44.558295   164 net.cpp:159] Memory required for data: 1003197440
I0131 12:54:44.558300   164 layer_factory.hpp:77] Creating layer drop6
I0131 12:54:44.558310   164 net.cpp:94] Creating Layer drop6
I0131 12:54:44.558315   164 net.cpp:435] drop6 <- fc6
I0131 12:54:44.558321   164 net.cpp:396] drop6 -> fc6 (in-place)
I0131 12:54:44.558346   164 net.cpp:144] Setting up drop6
I0131 12:54:44.558351   164 net.cpp:151] Top shape: 128 4096 (524288)
I0131 12:54:44.558354   164 net.cpp:159] Memory required for data: 1005294592
I0131 12:54:44.558358   164 layer_factory.hpp:77] Creating layer fc7
I0131 12:54:44.558368   164 net.cpp:94] Creating Layer fc7
I0131 12:54:44.558372   164 net.cpp:435] fc7 <- fc6
I0131 12:54:44.558379   164 net.cpp:409] fc7 -> fc7
I0131 12:54:44.769233   164 net.cpp:144] Setting up fc7
I0131 12:54:44.769277   164 net.cpp:151] Top shape: 128 4096 (524288)
I0131 12:54:44.769289   164 net.cpp:159] Memory required for data: 1007391744
I0131 12:54:44.769302   164 layer_factory.hpp:77] Creating layer relu7
I0131 12:54:44.769315   164 net.cpp:94] Creating Layer relu7
I0131 12:54:44.769326   164 net.cpp:435] relu7 <- fc7
I0131 12:54:44.769341   164 net.cpp:396] relu7 -> fc7 (in-place)
I0131 12:54:44.769361   164 net.cpp:144] Setting up relu7
I0131 12:54:44.769366   164 net.cpp:151] Top shape: 128 4096 (524288)
I0131 12:54:44.769369   164 net.cpp:159] Memory required for data: 1009488896
I0131 12:54:44.769372   164 layer_factory.hpp:77] Creating layer drop7
I0131 12:54:44.769381   164 net.cpp:94] Creating Layer drop7
I0131 12:54:44.769384   164 net.cpp:435] drop7 <- fc7
I0131 12:54:44.769429   164 net.cpp:396] drop7 -> fc7 (in-place)
I0131 12:54:44.769450   164 net.cpp:144] Setting up drop7
I0131 12:54:44.769456   164 net.cpp:151] Top shape: 128 4096 (524288)
I0131 12:54:44.769459   164 net.cpp:159] Memory required for data: 1011586048
I0131 12:54:44.769462   164 layer_factory.hpp:77] Creating layer fc8
I0131 12:54:44.769474   164 net.cpp:94] Creating Layer fc8
I0131 12:54:44.769477   164 net.cpp:435] fc8 <- fc7
I0131 12:54:44.769484   164 net.cpp:409] fc8 -> fc8
I0131 12:54:44.770020   164 net.cpp:144] Setting up fc8
I0131 12:54:44.770028   164 net.cpp:151] Top shape: 128 10 (1280)
I0131 12:54:44.770032   164 net.cpp:159] Memory required for data: 1011591168
I0131 12:54:44.770037   164 layer_factory.hpp:77] Creating layer loss
I0131 12:54:44.770045   164 net.cpp:94] Creating Layer loss
I0131 12:54:44.770048   164 net.cpp:435] loss <- fc8
I0131 12:54:44.770052   164 net.cpp:435] loss <- label
I0131 12:54:44.770062   164 net.cpp:409] loss -> loss
I0131 12:54:44.770072   164 layer_factory.hpp:77] Creating layer loss
…
I0131 12:54:44.770737   164 solver.cpp:181] Creating test net (#0) specified by net file: train_val.prototxt
I0131 12:54:44.770779   164 net.cpp:323] The NetState phase (1) differed from the phase (0) specified by a rule in layer train-data
I0131 12:54:44.770932   164 net.cpp:52] Initializing net from parameters:
state {
phase: TEST
}
layer {
name: "val-data"
type: "Data"
top: "data"
top: "label"
include {
phase: TEST
}
transform_param {
crop_size: 227
mean_file: "/opt/DIGITS/digits/jobs/20190131-125322-5b5a/mean.binaryproto"
}
data_param {
source: "/opt/DIGITS/digits/jobs/20190131-125322-5b5a/val_db"
batch_size: 32
backend: LMDB
}
}
layer {
name: "conv1"
type: "Convolution"
bottom: "data"
top: "conv1"
param {
lr_mult: 1
decay_mult: 1
}
param {
lr_mult: 2
decay_mult: 0
}
convolution_param {
num_output: 96
kernel_size: 11
stride: 4
weight_filler {
type: "gaussian"
std: 0.01
}
bias_filler {
type: "constant"
value: 0
}
}
}
layer {
name: "relu1"
type: "ReLU"
bottom: "conv1"
top: "conv1"
}
layer {
name: "norm1"
type: "LRN"
bottom: "conv1"
top: "norm1"
lrn_param {
local_size: 5
alpha: 0.0001
beta: 0.75
}
}
layer {
name: "pool1"
type: "Pooling"
bottom: "norm1"
top: "pool1"
pooling_param {
pool: MAX
kernel_size: 3
stride: 2
}
}
layer {
name: "conv2"
type: "Convolution"
bottom: "pool1"
top: "conv2"
param {
lr_mult: 1
decay_mult: 1
}
param {
lr_mult: 2
decay_mult: 0
}
convolution_param {
num_output: 256
pad: 2
kernel_size: 5
group: 2
weight_filler {
type: "gaussian"
std: 0.01
}
bias_filler {
type: "constant"
value: 0.1
}
}
}
layer {
name: "relu2"
type: "ReLU"
bottom: "conv2"
top: "conv2"
}
layer {
name: "norm2"
type: "LRN"
bottom: "conv2"
top: "norm2"
lrn_param {
local_size: 5
alpha: 0.0001
beta: 0.75
}
}
layer {
name: "pool2"
type: "Pooling"
bottom: "norm2"
top: "pool2"
pooling_param {
pool: MAX
kernel_size: 3
stride: 2
}
}
layer {
name: "conv3"
type: "Convolution"
bottom: "pool2"
top: "conv3"
param {
lr_mult: 1
decay_mult: 1
}
param {
lr_mult: 2
decay_mult: 0
}
convolution_param {
num_output: 384
pad: 1
kernel_size: 3
weight_filler {
type: "gaussian"
std: 0.01
}
bias_filler {
type: "constant"
value: 0
}
}
}
layer {
name: "relu3"
type: "ReLU"
bottom: "conv3"
top: "conv3"
}
layer {
name: "conv4"
type: "Convolution"
bottom: "conv3"
top: "conv4"
param {
lr_mult: 1
decay_mult: 1
}
param {
lr_mult: 2
decay_mult: 0
}
convolution_param {
num_output: 384
pad: 1
kernel_size: 3
group: 2
weight_filler {
type: "gaussian"
std: 0.01
}
bias_filler {
type: "constant"
value: 0.1
}
}
}
layer {
name: "relu4"
type: "ReLU"
bottom: "conv4"
top: "conv4"
}
layer {
name: "conv5"
type: "Convolution"
bottom: "conv4"
top: "conv5"
param {
lr_mult: 1
decay_mult: 1
}
param {
lr_mult: 2
decay_mult: 0
}
convolution_param {
num_output: 256
pad: 1
kernel_size: 3
group: 2
weight_filler {
type: "gaussian"
std: 0.01
}
bias_filler {
type: "constant"
value: 0.1
}
}
}
layer {
name: "relu5"
type: "ReLU"
bottom: "conv5"
top: "conv5"
}
layer {
name: "pool5"
type: "Pooling"
bottom: "conv5"
top: "pool5"
pooling_param {
pool: MAX
kernel_size: 3
stride: 2
}
}
layer {
name: "fc6"
type: "InnerProduct"
bottom: "pool5"
top: "fc6"
param {
lr_mult: 1
decay_mult: 1
}
param {
lr_mult: 2
decay_mult: 0
}
inner_product_param {
num_output: 4096
weight_filler {
type: "gaussian"
std: 0.005
}
bias_filler {
type: "constant"
value: 0.1
}
}
}
layer {
name: "relu6"
type: "ReLU"
bottom: "fc6"
top: "fc6"
}
layer {
name: "drop6"
type: "Dropout"
bottom: "fc6"
top: "fc6"
dropout_param {
dropout_ratio: 0.5
}
}
layer {
name: "fc7"
type: "InnerProduct"
bottom: "fc6"
top: "fc7"
param {
lr_mult: 1
decay_mult: 1
}
param {
lr_mult: 2
decay_mult: 0
}
inner_product_param {
num_output: 4096
weight_filler {
type: "gaussian"
std: 0.005
}
bias_filler {
type: "constant"
value: 0.1
}
}
}
layer {
name: "relu7"
type: "ReLU"
bottom: "fc7"
top: "fc7"
}
layer {
name: "drop7"
type: "Dropout"
bottom: "fc7"
top: "fc7"
dropout_param {
dropout_ratio: 0.5
}
}
layer {
name: "fc8"
type: "InnerProduct"
bottom: "fc7"
top: "fc8"
param {
lr_mult: 1
decay_mult: 1
}
param {
lr_mult: 2
decay_mult: 0
}
inner_product_param {
num_output: 10
weight_filler {
type: "gaussian"
std: 0.01
}
bias_filler {
type: "constant"
value: 0
}
}
}
layer {
name: "accuracy"
type: "Accuracy"
bottom: "fc8"
bottom: "label"
top: "accuracy"
include {
phase: TEST
}
}
layer {
name: "loss"
type: "SoftmaxWithLoss"
bottom: "fc8"
bottom: "label"
top: "loss"
}
I0131 12:54:44.771055   164 layer_factory.hpp:77] Creating layer val-data
I0131 12:54:44.771538   164 net.cpp:94] Creating Layer val-data
I0131 12:54:44.771559   164 net.cpp:409] val-data -> data
I0131 12:54:44.771574   164 net.cpp:409] val-data -> label
I0131 12:54:44.771586   164 data_transformer.cpp:25] Loading mean file from: /opt/DIGITS/digits/jobs/20190131-125322-5b5a/mean.binaryproto
I0131 12:54:44.772449   173 db_lmdb.cpp:35] Opened lmdb /opt/DIGITS/digits/jobs/20190131-125322-5b5a/val_db
I0131 12:54:44.774276   164 data_layer.cpp:78] ReshapePrefetch 32, 1, 227, 227
I0131 12:54:44.774330   164 data_layer.cpp:83] output data size: 32,1,227,227
I0131 12:54:44.788929   164 net.cpp:144] Setting up val-data
I0131 12:54:44.788964   164 net.cpp:151] Top shape: 32 1 227 227 (1648928)
I0131 12:54:44.788969   164 net.cpp:151] Top shape: 32 (32)
I0131 12:54:44.788974   164 net.cpp:159] Memory required for data: 6595840
I0131 12:54:44.788980   164 layer_factory.hpp:77] Creating layer label_val-data_1_split
I0131 12:54:44.789000   164 net.cpp:94] Creating Layer label_val-data_1_split
I0131 12:54:44.789005   164 net.cpp:435] label_val-data_1_split <- label
I0131 12:54:44.789013   164 net.cpp:409] label_val-data_1_split -> label_val-data_1_split_0
I0131 12:54:44.789026   164 net.cpp:409] label_val-data_1_split -> label_val-data_1_split_1
I0131 12:54:44.789247   164 net.cpp:144] Setting up label_val-data_1_split
I0131 12:54:44.789263   164 net.cpp:151] Top shape: 32 (32)
I0131 12:54:44.789268   164 net.cpp:151] Top shape: 32 (32)
I0131 12:54:44.789271   164 net.cpp:159] Memory required for data: 6596096
I0131 12:54:44.789275   164 layer_factory.hpp:77] Creating layer conv1
I0131 12:54:44.789294   164 net.cpp:94] Creating Layer conv1
I0131 12:54:44.789299   164 net.cpp:435] conv1 <- data
I0131 12:54:44.789306   164 net.cpp:409] conv1 -> conv1
I0131 12:54:44.789798   164 net.cpp:144] Setting up conv1
I0131 12:54:44.789810   164 net.cpp:151] Top shape: 32 96 55 55 (9292800)
I0131 12:54:44.789813   164 net.cpp:159] Memory required for data: 43767296
I0131 12:54:44.789824   164 layer_factory.hpp:77] Creating layer relu1
I0131 12:54:44.789832   164 net.cpp:94] Creating Layer relu1
I0131 12:54:44.789836   164 net.cpp:435] relu1 <- conv1
I0131 12:54:44.789842   164 net.cpp:396] relu1 -> conv1 (in-place)
I0131 12:54:44.789851   164 net.cpp:144] Setting up relu1
I0131 12:54:44.789856   164 net.cpp:151] Top shape: 32 96 55 55 (9292800)
I0131 12:54:44.789860   164 net.cpp:159] Memory required for data: 80938496
I0131 12:54:44.789862   164 layer_factory.hpp:77] Creating layer norm1
I0131 12:54:44.789872   164 net.cpp:94] Creating Layer norm1
I0131 12:54:44.789875   164 net.cpp:435] norm1 <- conv1
I0131 12:54:44.789881   164 net.cpp:409] norm1 -> norm1
I0131 12:54:44.790289   164 net.cpp:144] Setting up norm1
I0131 12:54:44.790307   164 net.cpp:151] Top shape: 32 96 55 55 (9292800)
I0131 12:54:44.790311   164 net.cpp:159] Memory required for data: 118109696
I0131 12:54:44.790316   164 layer_factory.hpp:77] Creating layer pool1
I0131 12:54:44.790326   164 net.cpp:94] Creating Layer pool1
I0131 12:54:44.790330   164 net.cpp:435] pool1 <- norm1
I0131 12:54:44.790338   164 net.cpp:409] pool1 -> pool1
I0131 12:54:44.790426   164 net.cpp:144] Setting up pool1
I0131 12:54:44.790434   164 net.cpp:151] Top shape: 32 96 27 27 (2239488)
I0131 12:54:44.790438   164 net.cpp:159] Memory required for data: 127067648
I0131 12:54:44.790442   164 layer_factory.hpp:77] Creating layer conv2
I0131 12:54:44.790453   164 net.cpp:94] Creating Layer conv2
I0131 12:54:44.790457   164 net.cpp:435] conv2 <- pool1
I0131 12:54:44.790465   164 net.cpp:409] conv2 -> conv2
I0131 12:54:44.795917   164 net.cpp:144] Setting up conv2
I0131 12:54:44.795938   164 net.cpp:151] Top shape: 32 256 27 27 (5971968)
I0131 12:54:44.795944   164 net.cpp:159] Memory required for data: 150955520
I0131 12:54:44.795959   164 layer_factory.hpp:77] Creating layer relu2
I0131 12:54:44.795971   164 net.cpp:94] Creating Layer relu2
I0131 12:54:44.795977   164 net.cpp:435] relu2 <- conv2
I0131 12:54:44.795987   164 net.cpp:396] relu2 -> conv2 (in-place)
I0131 12:54:44.796000   164 net.cpp:144] Setting up relu2
I0131 12:54:44.796008   164 net.cpp:151] Top shape: 32 256 27 27 (5971968)
I0131 12:54:44.796013   164 net.cpp:159] Memory required for data: 174843392
I0131 12:54:44.796020   164 layer_factory.hpp:77] Creating layer norm2
I0131 12:54:44.796031   164 net.cpp:94] Creating Layer norm2
I0131 12:54:44.796037   164 net.cpp:435] norm2 <- conv2
I0131 12:54:44.796046   164 net.cpp:409] norm2 -> norm2
I0131 12:54:44.796106   164 net.cpp:144] Setting up norm2
I0131 12:54:44.796118   164 net.cpp:151] Top shape: 32 256 27 27 (5971968)
I0131 12:54:44.796123   164 net.cpp:159] Memory required for data: 198731264
I0131 12:54:44.796128   164 layer_factory.hpp:77] Creating layer pool2
I0131 12:54:44.796139   164 net.cpp:94] Creating Layer pool2
I0131 12:54:44.796144   164 net.cpp:435] pool2 <- norm2
I0131 12:54:44.796152   164 net.cpp:409] pool2 -> pool2
I0131 12:54:44.796216   164 net.cpp:144] Setting up pool2
I0131 12:54:44.796226   164 net.cpp:151] Top shape: 32 256 13 13 (1384448)
I0131 12:54:44.796231   164 net.cpp:159] Memory required for data: 204269056
I0131 12:54:44.796236   164 layer_factory.hpp:77] Creating layer conv3
I0131 12:54:44.796250   164 net.cpp:94] Creating Layer conv3
I0131 12:54:44.796257   164 net.cpp:435] conv3 <- pool2
I0131 12:54:44.796267   164 net.cpp:409] conv3 -> conv3
I0131 12:54:44.812599   164 net.cpp:144] Setting up conv3
I0131 12:54:44.812620   164 net.cpp:151] Top shape: 32 384 13 13 (2076672)
I0131 12:54:44.812626   164 net.cpp:159] Memory required for data: 212575744
I0131 12:54:44.812640   164 layer_factory.hpp:77] Creating layer relu3
I0131 12:54:44.812651   164 net.cpp:94] Creating Layer relu3
I0131 12:54:44.812657   164 net.cpp:435] relu3 <- conv3
I0131 12:54:44.812666   164 net.cpp:396] relu3 -> conv3 (in-place)
I0131 12:54:44.812678   164 net.cpp:144] Setting up relu3
I0131 12:54:44.812685   164 net.cpp:151] Top shape: 32 384 13 13 (2076672)
I0131 12:54:44.812690   164 net.cpp:159] Memory required for data: 220882432
I0131 12:54:44.812696   164 layer_factory.hpp:77] Creating layer conv4
I0131 12:54:44.812711   164 net.cpp:94] Creating Layer conv4
I0131 12:54:44.812731   164 net.cpp:435] conv4 <- conv3
I0131 12:54:44.812742   164 net.cpp:409] conv4 -> conv4
I0131 12:54:44.823611   164 net.cpp:144] Setting up conv4
I0131 12:54:44.823637   164 net.cpp:151] Top shape: 32 384 13 13 (2076672)
I0131 12:54:44.823643   164 net.cpp:159] Memory required for data: 229189120
I0131 12:54:44.823654   164 layer_factory.hpp:77] Creating layer relu4
I0131 12:54:44.823668   164 net.cpp:94] Creating Layer relu4
I0131 12:54:44.823674   164 net.cpp:435] relu4 <- conv4
I0131 12:54:44.823684   164 net.cpp:396] relu4 -> conv4 (in-place)
I0131 12:54:44.823698   164 net.cpp:144] Setting up relu4
I0131 12:54:44.823704   164 net.cpp:151] Top shape: 32 384 13 13 (2076672)
I0131 12:54:44.823709   164 net.cpp:159] Memory required for data: 237495808
I0131 12:54:44.823753   164 layer_factory.hpp:77] Creating layer conv5
I0131 12:54:44.823771   164 net.cpp:94] Creating Layer conv5
I0131 12:54:44.823777   164 net.cpp:435] conv5 <- conv4
I0131 12:54:44.823788   164 net.cpp:409] conv5 -> conv5
I0131 12:54:44.832337   164 net.cpp:144] Setting up conv5
I0131 12:54:44.832360   164 net.cpp:151] Top shape: 32 256 13 13 (1384448)
I0131 12:54:44.832366   164 net.cpp:159] Memory required for data: 243033600
I0131 12:54:44.832383   164 layer_factory.hpp:77] Creating layer relu5
I0131 12:54:44.832396   164 net.cpp:94] Creating Layer relu5
I0131 12:54:44.832402   164 net.cpp:435] relu5 <- conv5
I0131 12:54:44.832442   164 net.cpp:396] relu5 -> conv5 (in-place)
I0131 12:54:44.832454   164 net.cpp:144] Setting up relu5
I0131 12:54:44.832463   164 net.cpp:151] Top shape: 32 256 13 13 (1384448)
I0131 12:54:44.832468   164 net.cpp:159] Memory required for data: 248571392
I0131 12:54:44.832474   164 layer_factory.hpp:77] Creating layer pool5
I0131 12:54:44.832489   164 net.cpp:94] Creating Layer pool5
I0131 12:54:44.832494   164 net.cpp:435] pool5 <- conv5
I0131 12:54:44.832504   164 net.cpp:409] pool5 -> pool5
I0131 12:54:44.832566   164 net.cpp:144] Setting up pool5
I0131 12:54:44.832577   164 net.cpp:151] Top shape: 32 256 6 6 (294912)
I0131 12:54:44.832583   164 net.cpp:159] Memory required for data: 249751040
I0131 12:54:44.832589   164 layer_factory.hpp:77] Creating layer fc6
I0131 12:54:44.832602   164 net.cpp:94] Creating Layer fc6
I0131 12:54:44.832607   164 net.cpp:435] fc6 <- pool5
I0131 12:54:44.832617   164 net.cpp:409] fc6 -> fc6
I0131 12:54:45.313917   164 net.cpp:144] Setting up fc6
I0131 12:54:45.313956   164 net.cpp:151] Top shape: 32 4096 (131072)
I0131 12:54:45.313961   164 net.cpp:159] Memory required for data: 250275328
I0131 12:54:45.313974   164 layer_factory.hpp:77] Creating layer relu6
I0131 12:54:45.313988   164 net.cpp:94] Creating Layer relu6
I0131 12:54:45.313994   164 net.cpp:435] relu6 <- fc6
I0131 12:54:45.314003   164 net.cpp:396] relu6 -> fc6 (in-place)
I0131 12:54:45.314019   164 net.cpp:144] Setting up relu6
I0131 12:54:45.314025   164 net.cpp:151] Top shape: 32 4096 (131072)
I0131 12:54:45.314028   164 net.cpp:159] Memory required for data: 250799616
I0131 12:54:45.314033   164 layer_factory.hpp:77] Creating layer drop6
I0131 12:54:45.314039   164 net.cpp:94] Creating Layer drop6
I0131 12:54:45.314043   164 net.cpp:435] drop6 <- fc6
I0131 12:54:45.314049   164 net.cpp:396] drop6 -> fc6 (in-place)
I0131 12:54:45.314082   164 net.cpp:144] Setting up drop6
I0131 12:54:45.314088   164 net.cpp:151] Top shape: 32 4096 (131072)
I0131 12:54:45.314091   164 net.cpp:159] Memory required for data: 251323904
I0131 12:54:45.314095   164 layer_factory.hpp:77] Creating layer fc7
I0131 12:54:45.314106   164 net.cpp:94] Creating Layer fc7
I0131 12:54:45.314110   164 net.cpp:435] fc7 <- fc6
I0131 12:54:45.314116   164 net.cpp:409] fc7 -> fc7
I0131 12:54:45.526979   164 net.cpp:144] Setting up fc7
I0131 12:54:45.527032   164 net.cpp:151] Top shape: 32 4096 (131072)
I0131 12:54:45.527037   164 net.cpp:159] Memory required for data: 251848192
I0131 12:54:45.527050   164 layer_factory.hpp:77] Creating layer relu7
I0131 12:54:45.527063   164 net.cpp:94] Creating Layer relu7
I0131 12:54:45.527070   164 net.cpp:435] relu7 <- fc7
I0131 12:54:45.527079   164 net.cpp:396] relu7 -> fc7 (in-place)
I0131 12:54:45.527096   164 net.cpp:144] Setting up relu7
I0131 12:54:45.527101   164 net.cpp:151] Top shape: 32 4096 (131072)
I0131 12:54:45.527104   164 net.cpp:159] Memory required for data: 252372480
I0131 12:54:45.527108   164 layer_factory.hpp:77] Creating layer drop7
I0131 12:54:45.527115   164 net.cpp:94] Creating Layer drop7
I0131 12:54:45.527119   164 net.cpp:435] drop7 <- fc7
I0131 12:54:45.527124   164 net.cpp:396] drop7 -> fc7 (in-place)
I0131 12:54:45.527158   164 net.cpp:144] Setting up drop7
I0131 12:54:45.527163   164 net.cpp:151] Top shape: 32 4096 (131072)
I0131 12:54:45.527168   164 net.cpp:159] Memory required for data: 252896768
I0131 12:54:45.527170   164 layer_factory.hpp:77] Creating layer fc8
I0131 12:54:45.527181   164 net.cpp:94] Creating Layer fc8
I0131 12:54:45.527184   164 net.cpp:435] fc8 <- fc7
I0131 12:54:45.527192   164 net.cpp:409] fc8 -> fc8
I0131 12:54:45.527758   164 net.cpp:144] Setting up fc8
I0131 12:54:45.527774   164 net.cpp:151] Top shape: 32 10 (320)
I0131 12:54:45.527781   164 net.cpp:159] Memory required for data: 252898048
I0131 12:54:45.527788   164 layer_factory.hpp:77] Creating layer fc8_fc8_0_split
I0131 12:54:45.527798   164 net.cpp:94] Creating Layer fc8_fc8_0_split
I0131 12:54:45.527802   164 net.cpp:435] fc8_fc8_0_split <- fc8
I0131 12:54:45.527809   164 net.cpp:409] fc8_fc8_0_split -> fc8_fc8_0_split_0
I0131 12:54:45.527858   164 net.cpp:409] fc8_fc8_0_split -> fc8_fc8_0_split_1
I0131 12:54:45.527910   164 net.cpp:144] Setting up fc8_fc8_0_split
I0131 12:54:45.527917   164 net.cpp:151] Top shape: 32 10 (320)
I0131 12:54:45.527921   164 net.cpp:151] Top shape: 32 10 (320)
I0131 12:54:45.527923   164 net.cpp:159] Memory required for data: 252900608
I0131 12:54:45.527927   164 layer_factory.hpp:77] Creating layer accuracy
I0131 12:54:45.527937   164 net.cpp:94] Creating Layer accuracy
I0131 12:54:45.527940   164 net.cpp:435] accuracy <- fc8_fc8_0_split_0
I0131 12:54:45.527945   164 net.cpp:435] accuracy <- label_val-data_1_split_0
I0131 12:54:45.527952   164 net.cpp:409] accuracy -> accuracy
…
